checkpoints/lightgcn_sgl.pt (torch, 258125 bytes, 2 tensors)

user_emb.weight f4 [200, 128]
0	0x3aef0a4f	0.0018237325
1	0x3c0e0192	0.008667367
2	0xbc674c7b	-0.014117355
3	0x3cc0b8a0	0.023525536
4	0x3c16a8ea	0.009195546
5	0x3bebc593	0.0071951835
6	0xbc2013d2	-0.0097703505
7	0x3c7efd40	0.015563309
8	0x3c19f831	0.009397552
9	0x3d1750a9	0.036942158
10	0xbb9e9a5f	-0.00484018
11	0xbb9bb11f	-0.004751339
12	0x3af933a4	0.0019012582
13	0xbd08a83c	-0.033363566
14	0x3ae1e6bf	0.0017234905
15	0x3cedc9ba	0.029026855
16	0x3a3a857f	0.00071152294
17	0x3ce90992	0.028446946
18	0x3d1d3116	0.03837689
19	0xbc8d6734	-0.017261125
20	0x3cf805f6	0.03027628
21	0xbc137427	-0.008999861
22	0xbc23ca7b	-0.009997006
23	0xbb059cde	-0.002038769
24	0xbbe7d928	-0.0070754476
25	0x3c633ba4	0.0138692
26	0x3b88fe93	0.0041807382
27	0xbd2ccb2d	-0.04218595
28	0xbccf9d8f	-0.025343684
29	0x3c87ba88	0.016568437
30	0x3c9acbb0	0.018895954
31	0x3c4ed5c4	0.012624208
32	0xbc7f40f6	-0.015579453
33	0x39037378	0.00012536149
34	0x3d2238f3	0.039605092
35	0xbce8b911	-0.028408559
36	0x3c86d034	0.0164567
37	0xbc3bfdb2	-0.01147406
38	0x3ae90822	0.0017778913
39	0x3c5d35be	0.013501583
40	0x3d2f9661	0.042868022
41	0x3caa466f	0.020785538
42	0x3cb522de	0.022111353
43	0x3cb02b31	0.02150497
44	0x3be867e2	0.007092462
45	0x3bda7993	0.006667325
46	0xbc2bef58	-0.010494076
47	0x3c585505	0.013203864
48	0x3c602071	0.01367961
49	0xbcc9f1a2	-0.024651352
50	0x3cd46d73	0.025931096
51	0x3c72deb2	0.0148236025
52	0xbc8646fd	-0.016391272
53	0x3d148d01	0.036267284
54	0xbc0793bb	-0.008274968
55	0x3caa09e1	0.020756664
56	0x3c739cc1	0.014868916
57	0xbc989c2d	-0.018629158
58	0x3c394455	0.0113077955
59	0x3c2275c1	0.00991577
60	0x3c1809f1	0.009279714
61	0x3b2aa7a2	0.0026039858
62	0x3cd3b201	0.025841715
63	0xb91ef9be	-0.0001516109
64	0x3c3dd65f	0.011586755
65	0xbc9935f7	-0.01870249
66	0xbc094b0f	-0.008379712
67	0x3c7ba62a	0.015359441
68	0x3cafecbd	0.02147519
69	0xbc8776ed	-0.0165362
70	0xbbae15f8	-0.0053126775
71	0x3cbeb4c3	0.023279553
72	0x3d22d07c	0.039749607
73	0xbbea47b4	-0.007149661
74	0x3bbb0c29	0.0057082367
75	0xbcf82985	-0.030293236
76	0xbc6d2a79	-0.014475458
77	0x3c21005f	0.009826749
78	0xbc2d3d7b	-0.01057374
79	0xbccd8f9a	-0.025092889
80	0x3c890cf7	0.016729815
81	0xbce328eb	-0.027729472
82	0x3ca4e75f	0.020129858
83	0xbc7a498e	-0.015276326
84	0xbcb213fa	-0.021738041
85	0x3b126b23	0.002234169
86	0xbcf725ba	-0.030169357
87	0xbc4664d8	-0.012109004
88	0xbcaa8dc3	-0.02081955
89	0xbc9bb18a	-0.019005556
90	0x3b785254	0.0037890868
91	0x3bbf260d	0.0058333934
92	0xb9acb985	-0.0003294462
93	0x3bb7755d	0.0055987076
94	0x3bcbd81f	0.006220832
95	0xbc76aab7	-0.01505535
96	0xbc84577d	-0.016154999
97	0xbb451f92	-0.0030078632
98	0x3b7ee81d	0.0038895675
99	0xbc8812db	-0.016610553
100	0xbbe5112b	-0.006990572
101	0x3cde8113	0.027161157
102	0xbc334db9	-0.0109438235
103	0xbcb36cf2	-0.021902535
104	0xba75382c	-0.00093543786
105	0x3c7f3022	0.015575441
106	0x3cd5f303	0.026116854
107	0x3b8ef193	0.004362294
108	0x3cdedcd8	0.027204916
109	0x3be741f9	0.007057425
110	0xbc017336	-0.007901004
111	0xbbca374a	-0.0061711418
112	0x3c848037	0.016174419
113	0xbce717d8	-0.028209612
114	0x3c2da266	0.010597801
115	0x3b283c82	0.002567083
116	0xbc0f8f93	-0.008762258
117	0xbbb50ce1	-0.005525217
118	0x3d11e7db	0.035621505
119	0xbb724735	-0.0036968712
120	0x3cc8c209	0.024506586
121	0xbb44dc52	-0.0030038548
122	0x3bb05b79	0.005381998
123	0x3b0835a9	0.0020783937
124	0x3c9461b5	0.018112997
125	0xbc84ac4e	-0.016195443
126	0x3b901255	0.0043967166
127	0x3c837506	0.016047012
128	0x3cd55541	0.026041629
129	0xbbc47090	-0.005994864
130	0xbca36d0e	-0.019949462
131	0xbcdaf8a2	-0.026729885
132	0x3cfae741	0.030627849
133	0xbb7e0e8a	-0.003876599
134	0x3b858eb6	0.0040758504
135	0xbc549843	-0.012975755
136	0x3c5169f5	0.01278161
137	0x3c1d38e5	0.009596084
138	0xbc4d6d92	-0.012538331
139	0x3ce74548	0.028231278
140	0x3cd50252	0.026002083
141	0x3ad6868a	0.0016367
142	0x3be7e287	0.0070765647
143	0x3848d810	4.788494e-05
144	0xbca93b20	-0.020658076
145	0xbca98dee	-0.02069756
146	0x3c2a1bb7	0.010382584
147	0xbc685db9	-0.0141825015
148	0xba2c8961	-0.00065817503
149	0x3c7faead	0.015605611
150	0x3d0d2d64	0.034467116
151	0x3b6c0dd1	0.0036018977
152	0x3c81c21c	0.015839629
153	0xbbc711f6	-0.006075139
154	0xbc974430	-0.018465132
155	0x3cf8ba9f	0.030362425
156	0x3caeb362	0.02132577
157	0xbc3797f9	-0.011205667
158	0x3c9b9ef0	0.018996686
159	0x3ca0a895	0.019611636
160	0x3ccce600	0.025012016
161	0xbc976583	-0.018481022
162	0xbb1b1842	-0.0023665582
163	0x3c2d15f4	0.010564316
164	0xbccb67b4	-0.024829723
165	0x3afbe324	0.0019217473
166	0x3b8c28a2	0.0042773047
167	0x3c601d5e	0.013678877
168	0xbb69f9ce	-0.0035701874
169	0xbc4e910a	-0.012607822
170	0x3ce71048	0.028206006
171	0xbc316558	-0.010827385
172	0x3c06ecca	0.008235166
173	0x3a966291	0.0011473467
174	0xbca49f08	-0.020095363
175	0xbcaaebc1	-0.02086437
176	0xbca0b2df	-0.019616542
177	0x3c50f480	0.012753606
178	0x3c030388	0.007996447
179	0xbc81a694	-0.015826501
180	0xbb77ddb6	-0.003782136
181	0x3c8a13c0	0.01685512
182	0xbd25a23b	-0.04043792
183	0xbb80eaae	-0.003934226
184	0xbcbef6e7	-0.023311092
185	0x3cb20f03	0.021735674
186	0x3cc0a139	0.023514377
187	0xbca43b61	-0.020047845
188	0xbc0f8445	-0.008759563
189	0x3c8691ba	0.01642691
190	0x3c131f6e	0.008979661
191	0xbb6d3a19	-0.003619796
192	0x3c37a7c8	0.011209436
193	0xbc74bdd7	-0.0149378395
194	0x3c65aa92	0.014017718
195	0x3d40db27	0.047084
196	0x3c920adf	0.01782745
197	0xbc995458	-0.018716976
198	0xbd02286f	-0.03177684
199	0xbc9a1bb7	-0.018812044
200	0xbca48093	-0.02008084
201	0xbcaff5ee	-0.021479573
202	0xbc980356	-0.018556278
203	0x3c991f5b	0.01869171
204	0xbc593909	-0.013258227
205	0x3cca5fce	0.024703886
206	0x3ce89253	0.028390085
207	0xbcabf13d	-0.020989055
208	0xbce45097	-0.02787046
209	0x3d1a89f2	0.03772921
210	0xbc700a71	-0.014650927
211	0x3cbf9c4c	0.023389958
212	0x3c1ccc40	0.009570181
213	0xbc4a531c	-0.012348916
214	0xbc1c6535	-0.009545614
215	0xbc4bc872	-0.012437927
216	0x3ac40d5e	0.0014957597
217	0xbbbe3598	-0.0058047287
218	0xbc731147	-0.014835662
219	0xbc8e4147	-0.017365111
220	0xbc443e65	-0.011977767
221	0xbc15f257	-0.009152017
222	0xbc088e4a	-0.008334706
223	0xbc0fef88	-0.008785136
224	0xbbb57d1a	-0.005538595
225	0x3c87122c	0.016488157
226	0x3bc39156	0.005968253
227	0x3c0232d5	0.00794669
228	0x3c3ef6b3	0.011655497
229	0xbcc4a8a4	-0.024006195
230	0x3b21a143	0.002466277
231	0xbc2d1efa	-0.010566467
232	0x3cd88f11	0.026435407
233	0xbb68cde6	-0.0035523116
234	0xbcdb8a18	-0.026799247
235	0xbcd560b3	-0.026047086
236	0x3c9e67b2	0.019336555
237	0x3c2dbfdc	0.010604825
238	0xbd2f75aa	-0.042836823
239	0x3b9020da	0.0043984475
240	0xbc17c5ec	-0.009263497
241	0xbcf5ba79	-0.029996144
242	0xbc6797a0	-0.014135271
243	0x3c6bf60d	0.014401925
244	0xbd146852	-0.0362323
245	0x3c553623	0.0130133955
246	0x3c8fe4bc	0.017565124
247	0x3d16c63d	0.03681015
248	0xbc24ecf5	-0.010066261
249	0x3c66ca1b	0.014086272
250	0xbb12f512	-0.0022423905
251	0xbc4f878b	-0.012666593
252	0x3cd03388	0.025415197
253	0xbc161907	-0.00916124
254	0x3bb7657c	0.0055968147
255	0x3ca7324e	0.02040973

item_emb.weight f4 [300, 128]
0	0x3c9ae4b6	0.018907886
1	0x3cf3d916	0.0297666
2	0xbc9a8cf4	-0.01886604
3	0x3c945481	0.0181067
4	0xbba78d4c	-0.0051132794
5	0x3af456e1	0.0018641615
6	0xbc1ae45f	-0.009453862
7	0x3bcb735a	0.0062088193
8	0xbbc50a81	-0.006013215
9	0xbb4cb4ab	-0.0031235616
10	0x3c5f7744	0.013639275
11	0x3c3272b7	0.010891608
12	0x3c4d2a1b	0.012522246
13	0x3b45f042	0.003020302
14	0x3c5cc32c	0.013474267
15	0x3b983561	0.004645035
16	0xbad515c6	-0.0016257099
17	0x3c5d7567	0.01351676
18	0x3c05c912	0.008165615
19	0xbcc49c77	-0.02400039
20	0x3ca3b1b4	0.019982196
21	0x3c051d89	0.0081247175
22	0xbceb9683	-0.028758293
23	0xbc0e6dad	-0.008693141
24	0xbc4aed5f	-0.012385695
25	0x3b6041eb	0.0034218978
26	0x3c9a7cae	0.01885828
27	0xbcb07b05	-0.021543035
28	0xbbf56376	-0.0074886633
29	0x3cb79e0e	0.022414234
30	0x3c08f076	0.008358112
31	0x3bac764d	0.005263126
32	0x3c77134f	0.015080287
33	0x3cce385f	0.025173364
34	0x3b40a8a9	0.0029397404
35	0xbc869da7	-0.016432596
36	0xbc25255d	-0.010079709
37	0xbb1bd4e2	-0.002377801
38	0xbc22d3ad	-0.009938163
39	0x3cf03533	0.029322242
40	0x3ca6c38b	0.020356914
41	0x3ba786f4	0.005112523
42	0x3c4add5d	0.012381879
43	0xbc662eaf	-0.014049216
44	0xbb3102d7	-0.002700975
45	0x3c8173c3	0.01580227
46	0xbb0e4eee	-0.0021714526
47	0x3d093c79	0.033504937
48	0xb9ff1227	-0.00048650915
49	0xbcb5f1f5	-0.0222101
50	0x3c842c10	0.016134292
51	0x3b9c898a	0.004777138
52	0x3bcb3110	0.006200917
53	0x3b976926	0.004620689
54	0xbcb962b2	-0.02263007
55	0xbb4d4c29	-0.0031325913
56	0x3c114012	0.008865373
57	0xbb42c3cb	-0.0029718752
58	0xbb3f09ef	-0.0029150208
59	0x3b0f1868	0.0021834616
60	0x3d0611b0	0.032731712
61	0xbc54ad3a	-0.012980754
62	0xbbb70303	-0.005585076
63	0xbb0a1253	-0.002106805
64	0xbca5fc85	-0.020262012
65	0x3c355208	0.011066921
66	0xbb49d849	-0.0030799082
67	0x3d18a053	0.037262272
68	0x3c673ea7	0.014114059
69	0x3ab976ff	0.0014149843
70	0xbbdf22b0	-0.006809555
71	0x3ba71f8f	0.0051001976
72	0x3c7878d1	0.015165524
73	0xbbb49948	-0.0055114366
74	0x3ad9b77a	0.0016610466
75	0xbbc55384	-0.0060219187
76	0xbbd3b9d2	-0.0064613605
77	0xbb8bce42	-0.004266531
78	0x3b314325	0.0027048078
79	0xbce992f3	-0.028512454
80	0x3c09a1a8	0.008400358
81	0xbcf22a08	-0.029561058
82	0xbc6becae	-0.014399691
83	0xbd106f06	-0.03526213
84	0x390e73a2	0.00013585252
85	0x3b946214	0.0045282934
86	0xbb554518	-0.0032542404
87	0x3c2b3c9e	0.010451464
88	0x3cd1257e	0.025530573
89	0x3a7364e7	0.000928475
90	0xbc6c4910	-0.014421716
91	0x3be6f69a	0.00704844
92	0xbc53c6f7	-0.012925855
93	0x3b98c664	0.004662322
94	0x3b526b3e	0.0032107378
95	0xbcd79912	-0.026318107
96	0xbced9085	-0.028999576
97	0x3ace0bdb	0.0015720086
98	0x3b735222	0.0037127812
99	0xbcae5604	-0.02128125
100	0xbca735bb	-0.020411363
101	0x3bcd3c03	0.0062632575
102	0xbb1cb8d3	-0.0023913875
103	0xbcbc1bb0	-0.022962421
104	0x3b018deb	0.0019768428
105	0xbc6d8ec1	-0.014499367
106	0x3c949d4e	0.018141415
107	0xbc703fab	-0.014663617
108	0x3be0a825	0.006855982
109	0xbcb6f82c	-0.022335134
110	0x3c586629	0.013207951
111	0xbb31fca7	-0.002715865
112	0xbc729800	-0.014806747
113	0xbbfbadbe	-0.007680624
114	0xbc6b1515	-0.014348288
115	0x3ba97171	0.005170994
116	0x3c181508	0.009282358
117	0xbc24da3d	-0.010061798
118	0x3babd3ee	0.00524377
119	0x3a5fea53	0.0008541692
120	0xbb325f9d	-0.0027217634
121	0x3c68bb32	0.014204787
122	0xbc51abba	-0.01279729
123	0xbbd57fcd	-0.006515479
124	0xbc434d6b	-0.011920313
125	0xbc86dfbc	-0.016464107
126	0xbc50cf9c	-0.01274481
127	0x3c461a43	0.012091222
128	0xbc17a16d	-0.0092547955
129	0x3c7017da	0.014654124
130	0xbd248391	-0.040164534
131	0xbc81cbdc	-0.015844278
132	0x397dd37c	0.00024206744
133	0xbc9a9527	-0.01886995
134	0x3890656c	6.8853464e-05
135	0x3c0713cb	0.008244465
136	0xbcb1489b	-0.021641066
137	0xbb38fc48	-0.0028226543
138	0xbcb9622e	-0.022629824
139	0xbc6cd02c	-0.014453929
140	0xbc9312dd	-0.01795333
141	0xbc0a09be	-0.008425174
142	0xbce88214	-0.028382339
143	0x3be02b5c	0.0068411063
144	0xbc5a2bad	-0.013316077
145	0xbc33a9d3	-0.010965782
146	0x3cf6bc2d	0.030119026
147	0xbc3774dd	-0.011197296
148	0x3c8e39fc	0.017361633
149	0xb8afe440	-8.387165e-05
150	0x3c47bf72	0.01219164
151	0x3c266520	0.010155946
152	0xbc916e34	-0.017752744
153	0x3c8ccd61	0.017187776
154	0xbb26cd05	-0.002545179
155	0xbc90c62d	-0.017672623
156	0xbd00bcc0	-0.031430006
157	0x3bb8aeb8	0.0056360625
158	0x3c915836	0.017742258
159	0xbc385d1e	-0.01125267
160	0xbbde1c9b	-0.0067783124
161	0xbcd9dae4	-0.026593633
162	0xb9118064	-0.00013876107
163	0xbca28eba	-0.019843448
164	0x3c88303d	0.016624564
165	0xbc9af2e0	-0.01891464
166	0xbc1ae9dc	-0.0094551705
167	0x3cc3beba	0.023894656
168	0x3b37b932	0.002803397
169	0x3c022c50	0.007945135
170	0x3c942ec5	0.018088708
171	0x3cba7cc7	0.022764577
172	0xbc09433e	-0.008377848
173	0xbcb58c96	-0.022161763
174	0x3c03d112	0.008045452
175	0x3c371a0f	0.011175646
176	0xbcc67b54	-0.02422873
177	0xbd1fcd22	-0.03901399
178	0x3c3e8bd8	0.011630021
179	0x3c67251b	0.014107968
180	0xbcff2b82	-0.031148676
181	0x3bca0aed	0.0061658532
182	0x3c851fec	0.016250573
183	0xbcaa4cf4	-0.020788647
184	0x3c4f387f	0.012647747
185	0xbd03787f	-0.032097336
186	0x3c86adcb	0.016440293
187	0xbc8b196d	-0.016979897
188	0xbc85a658	-0.01631467
189	0x3b57d147	0.0032931136
190	0x3ba283c2	0.0049595544
191	0x3c8f3316	0.017480414
192	0xbbd282ef	-0.0064243
193	0xbc9d24f0	-0.019182652
194	0x3cd93456	0.026514214
195	0x3c7df826	0.015501058
196	0xbca6c830	-0.020359129
197	0xbc87c3b1	-0.016572805
198	0xbc44b160	-0.01200518
199	0x3c817aee	0.015805688
200	0x3c3a238e	0.011361016
201	0x3ca9f4bb	0.02074658
202	0x3adeb8f8	0.0016992381
203	0xbb3ebe00	-0.0029104948
204	0x38207a10	3.8260652e-05
205	0x3a4a1922	0.00077094336
206	0xbbf4051c	-0.007446898
207	0xbd19ecb0	-0.03757924
208	0x3c0e66d4	0.008691508
209	0xbc83a248	-0.016068593
210	0x3c1bcf3d	0.009509859
211	0x3c2c06fe	0.010499714
212	0xbbaee142	-0.0053369114
213	0xbc564664	-0.013078306
214	0xbc000cee	-0.007815583
215	0xbad17cf2	-0.0015982671
216	0x3c9665c3	0.01835907
217	0xbcc9dffc	-0.024642937
218	0xbaebb039	-0.0017981596
219	0xbd16835b	-0.036746364
220	0x3cec599b	0.028851321
221	0x3bbde39a	0.0057949545
222	0x3ada3ce1	0.0016650223
223	0xbcdbb3db	-0.02681916
224	0xbcd2f73c	-0.025752656
225	0xbbd4d054	-0.006494561
226	0x3d1d2d1f	0.03837311
227	0xbc92141e	-0.017831858
228	0x3c51d63d	0.012807426
229	0xbce61fde	-0.028091367
230	0x3abd5009	0.0014443408
231	0xbcaef417	-0.021356625
232	0x3c03ecf1	0.008052097
233	0x3c6b28b0	0.014352962
234	0xbb80b846	-0.003928217
235	0x3b4a99ca	0.003091442
236	0xbbbce090	-0.0057640746
237	0x3c4afe0d	0.012389672
238	0x3c0615c1	0.0081838975
239	0x3ca39316	0.019967597
240	0x3abdf1e7	0.0014491648
241	0xbcdefc13	-0.027219808
242	0x3c6f0905	0.014589553
243	0xbc0bec48	-0.008540221
244	0x39fa30ea	0.0004772016
245	0x3c2c81b7	0.010528973
246	0xbc521660	-0.012822717
247	0xbc4e5cac	-0.012595337
248	0x3c800256	0.015626114
249	0x3c82a203	0.015946394
250	0xbce89d34	-0.028395273
251	0xbcad52de	-0.021157678
252	0x3c6040e0	0.013687342
253	0xbb6230ab	-0.0034513872
254	0x3b784442	0.0037882482
255	0xbc199565	-0.009373997
