checkpoints/lightgcn.pt (torch, 130093 bytes, 2 tensors)

user_emb.weight f4 [200, 64]
0	0xbd20532e	-0.039141826
1	0x3ca68cb6	0.020330768
2	0xbb319c5a	-0.002710125
3	0xbc2fde0e	-0.010734094
4	0x3ae5e193	0.001753854
5	0x3c567d02	0.013091328
6	0x39b108bc	0.00033766578
7	0x3cefccc5	0.029272446
8	0x3c1dee38	0.009639315
9	0x3ca6d5c8	0.02036561
10	0xbc83269f	-0.016009627
11	0xbc768296	-0.015045783
12	0xbc898f17	-0.016791863
13	0x3c53f4e2	0.012936803
14	0xbc74c34a	-0.014939139
15	0xbd0edccf	-0.03487855
16	0xbc02c8d7	-0.007982454
17	0x3c8233c9	0.015893834
18	0x3c07f2bf	0.008297621
19	0xbb8dec6b	-0.0043311617
20	0x3c52a2ee	0.012856228
21	0xbcf5c304	-0.030000217
22	0xba88bebb	-0.0010432819
23	0xbb8e8a8a	-0.0043500112
24	0xbc6046f0	-0.013688788
25	0x3c9ffdb5	0.019530157
26	0xbb2bff5b	-0.0026244733
27	0xbc65bf7a	-0.014022702
28	0x3ba3d05d	0.004999204
29	0x3a130942	0.00056089845
30	0x3c2a540e	0.010396017
31	0x3c8c495e	0.017124828
32	0x3ca72443	0.020403033
33	0xbc4ef8f8	-0.012632601
34	0x3cb848bf	0.022495626
35	0xbc2ab288	-0.010418542
36	0x3c46351e	0.012097625
37	0x3a78a48e	0.000948497
38	0x3bbf268c	0.0058334526
39	0x3c81d347	0.015847815
40	0x3d028f3f	0.03187489
41	0x3bd9f2b2	0.006651246
42	0x3c4e9098	0.012607716
43	0xbc25f109	-0.010128268
44	0xbbdeb1a1	-0.0067960774
45	0x3c12d801	0.008962632
46	0x3b4d5bfb	0.0031335342
47	0xbabff19f	-0.0014644152
48	0x3d0cac4f	0.034344014
49	0x3c884d91	0.016638549
50	0x3cdc1c23	0.026868885
51	0xbc392072	-0.0112992395
52	0x3b88feea	0.0041807787
53	0x3bae7927	0.005324501
54	0x3c244242	0.010025563
55	0x3d069fdf	0.03286731
56	0xbc0b8584	-0.008515719
57	0xbc9ae01b	-0.01890569
58	0x3ce3d00d	0.027809167
59	0xbc993607	-0.01870252
60	0x3c387d9b	0.011260415
61	0xbc892fb2	-0.016746376
62	0x3a1ef0d1	0.0006063106
63	0x3d169210	0.03676039
64	0xbc92fa0f	-0.017941503
65	0x3ba477a4	0.005019145
66	0x3be19d17	0.0068851816
67	0xbc4f1bc2	-0.012640895
68	0x3b80dce2	0.0039325813
69	0x3c7d75d5	0.015469988
70	0xbd07a9ab	-0.033120792
71	0x3cfa6b26	0.03056867
72	0xbba60f90	-0.005067773
73	0x3cbf242d	0.02333268
74	0xbcfeb77d	-0.031093353
75	0x3a5f3df6	0.0008516008
76	0xbcc2730c	-0.0237365
77	0x3c659e27	0.014014757
78	0xbca0792d	-0.019589031
79	0xbc3d2b6e	-0.011545999
80	0x3c9871cc	0.01860895
81	0xbbff3b48	-0.0077890493
82	0xbc12dd2e	-0.008963866
83	0xbcf50335	-0.029908756
84	0x3cac7f86	0.021056902
85	0x3cd915ae	0.026499595
86	0x38c47b84	9.369015e-05
87	0xbc57af6c	-0.013164382
88	0x3be50594	0.0069891904
89	0xbc788bb0	-0.015170023
90	0xbcb255d0	-0.021769434
91	0xbc24e267	-0.010063744
92	0xbd0eeaf4	-0.034892038
93	0xbc5c3b25	-0.0134418355
94	0x3cf4c324	0.029878207
95	0x3ccc78f4	0.024960019
96	0xbb7d1e6a	-0.0038622865
97	0x3d0f70ef	0.03501981
98	0xbc246903	-0.010034802
99	0xbb522d02	-0.0032070284
100	0x3c967146	0.01836456
101	0xbb9db972	-0.0048133666
102	0xbca95ed8	-0.020675108
103	0xbc3ce47d	-0.011529085
104	0xbb94d1a0	-0.004541591
105	0x3cecd5ec	0.0289106
106	0xbc074eef	-0.008258565
107	0xbc09701a	-0.0083885435
108	0xbc8b93f6	-0.017038327
109	0xbc19614a	-0.009361574
110	0x3b50667c	0.0031799367
111	0xbc5cccf5	-0.0134766
112	0xbbeaedbd	-0.007169454
113	0xbc33db93	-0.010977644
114	0x3d103de5	0.035215277
115	0x3c521f7b	0.012824888
116	0x3d119100	0.035538673
117	0xbb2f7b7e	-0.0026776488
118	0xbcc79144	-0.02436126
119	0x3cf0ae31	0.029379936
120	0x3d0485f3	0.032354306
121	0x3cc61839	0.024181472
122	0x3c0ca749	0.008584806
123	0xbd376687	-0.044775512
124	0xbcaaf72a	-0.02086981
125	0xbb80ecb6	-0.003934468
126	0xba2dcdb5	-0.0006630079
127	0x3cce7eb8	0.025206909
128	0xba3827b1	-0.00070249574
129	0x3c899b1b	0.016797593
130	0xbc0d6c4f	-0.00863178
131	0xb8fbd108	-0.00012007548
132	0x3c0ee0b4	0.008720566
133	0xbc6d38cc	-0.014478873
134	0xbc60f212	-0.013729589
135	0xbc94dbc1	-0.018171193
136	0x3bb9c2d7	0.0056689787
137	0xbcf9bfde	-0.030486997
138	0x3bbf7878	0.0058432184
139	0x3c865f46	0.016402852
140	0x3cb6ce7e	0.02231526
141	0x3cc6a9ac	0.024250828
142	0x3cd6ffdb	0.026245048
143	0xbbaf02ae	-0.0053408956
144	0x3c8f4f7e	0.01749396
145	0x3b86991e	0.0041076085
146	0x3be2df6c	0.0069236066
147	0xbc40f679	-0.011777514
148	0x3a445502	0.0007489474
149	0x3c58a0ed	0.013221961
150	0xbc5ea9b5	-0.013590266
151	0xbaf10928	-0.001838957
152	0xbbdc991e	-0.00673212
153	0xbd01b242	-0.03166414
154	0xbcde7562	-0.027155582
155	0x3d0f77a1	0.035026196
156	0xbc3ce233	-0.0115285395
157	0x3c8ce83c	0.017200582
158	0x3bec516a	0.0072118538
159	0x3c92ab0c	0.017903827
160	0xbcf6ef4c	-0.030143403
161	0x3cc790ea	0.024361093
162	0x3d13d338	0.036090106
163	0x3d1f8c1f	0.03895199
164	0xbc50e7a1	-0.012750537
165	0xbd17a7a0	-0.037025094
166	0x3cd68512	0.0261865
167	0xbc8a9021	-0.01691443
168	0x3bb907bb	0.0056466735
169	0xbcef72ad	-0.029229486
170	0xbc386c95	-0.011256357
171	0x3ccb4d0a	0.024817009
172	0xbc889c74	-0.016676165
173	0x3c4d059f	0.012513547
174	0xbd02179d	-0.0317608
175	0x3c627625	0.013822113
176	0x3be3655e	0.006939574
177	0x3b2f90e0	0.0026789233
178	0x3bcd1b3b	0.0062593496
179	0x3c94c4a5	0.018160174
180	0xbb618096	-0.0034408919
181	0x3c99d132	0.01877651
182	0x3bc67ebe	0.0060575893
183	0x3ab5ae0c	0.0013861074
184	0x3d0b528a	0.034014262
185	0x3cc2c41b	0.023775151
186	0xbc4c1cb0	-0.0124580115
187	0x3c82b87b	0.015957108
188	0xbceb383e	-0.028713342
189	0xbc922dd5	-0.01784412
190	0x3bf6a0f8	0.007526513
191	0x3b041bc7	0.0020158158
192	0x3ba6412a	0.005073686
193	0xbc2a9e7c	-0.010413762
194	0x3c6d0a32	0.014467763
195	0xbc0feb32	-0.008784102
196	0x3ca18c1e	0.019720133
197	0x3c3fc96f	0.01170574
198	0xbcc211a7	-0.023690058
199	0x3b4d492e	0.0031324136
200	0xbc85164f	-0.01624599
201	0xba81463a	-0.0009862848
202	0xbbe474e8	-0.006971944
203	0xbc80eb93	-0.01573733
204	0x3d05df70	0.03268379
205	0xbcd3fd44	-0.025877602
206	0xbab7c389	-0.0014020066
207	0xbc9116b1	-0.017711015
208	0x3bb75a76	0.0055955006
209	0xbcb3ea58	-0.02196233
210	0x3c1d2c69	0.009593108
211	0xbb22c723	-0.0024837933
212	0xbcd2c061	-0.025726499
213	0x3bd89019	0.0066089747
214	0x3c8daf8f	0.017295627
215	0xbc32777e	-0.010892747
216	0x3b308763	0.0026936166
217	0xbcb36325	-0.021897862
218	0x3bc75023	0.006082551
219	0xbcb80826	-0.022464823
220	0x3ca1ddcb	0.01975908
221	0x3cfcc1a4	0.030854054
222	0x3be2d303	0.006922127
223	0x3c316d54	0.0108292885
224	0x3d0c9b3c	0.03432773
225	0x3ba0e02b	0.0049095354
226	0xbc630b44	-0.013857666
227	0x3c02d7f7	0.00798606
228	0xbc7d886e	-0.015474422
229	0x3a74597e	0.00093211967
230	0xbc320cdf	-0.0108673265
231	0xbcd996b9	-0.026561128
232	0x3bc39057	0.0059681344
233	0x3be65d9b	0.0070302016
234	0xbc5c8c48	-0.01346118
235	0xbd04262a	-0.03226296
236	0x3ce5030e	0.027955558
237	0x3b71a249	0.003687041
238	0xbcd1bc46	-0.025602471
239	0x3bcc079d	0.0062264935
240	0x3cb1112b	0.021614632
241	0x3c4332b7	0.011913947
242	0xbc34a696	-0.011026045
243	0x3c97db3d	0.018537158
244	0xbd2aa28b	-0.04165892
245	0xbc056557	-0.008141837
246	0xbc2a7b71	-0.010405407
247	0xbc9242ae	-0.017854061
248	0xbb8e9d99	-0.004352283
249	0xbc44dfce	-0.01201625
250	0x3c98a3b1	0.018632742
251	0xbca87b01	-0.020566465
252	0xbd094c79	-0.033520196
253	0xbc888c0d	-0.016668344
254	0x3b9f6a6b	0.004864981
255	0x3b7d9140	0.0038691312

item_emb.weight f4 [300, 64]
0	0xba7bdd38	-0.00096078543
1	0x3c1bf3e9	0.009518602
2	0xbbe7fb1d	-0.0070794956
3	0x3c8091f3	0.015694594
4	0x3a48863f	0.0007649399
5	0x3b9f9fc4	0.0048713405
6	0x3bd7be9a	0.006584001
7	0xbc81088f	-0.015751151
8	0x3ab2fff6	0.0013656605
9	0xbb4624aa	-0.0030234256
10	0x3c895579	0.01676439
11	0x3c087048	0.008327551
12	0x3b97303a	0.0046139034
13	0x3c2259d6	0.009909114
14	0x3c272451	0.01020153
15	0xbca6ec58	-0.02037637
16	0xbcd83cd8	-0.0263962
17	0x3c9e8e4a	0.019354958
18	0x3ca4824b	0.02008166
19	0x3bd4542a	0.0064797597
20	0x3ccc8839	0.0249673
21	0xbce31739	-0.027721034
22	0xbc2b656a	-0.010461191
23	0x3ab78efd	0.0014004406
24	0xbc975989	-0.01847531
25	0x3cd5ee57	0.026114626
26	0x3d17e14b	0.03708009
27	0x3c4af6a4	0.012387905
28	0xba4d601d	-0.00078344514
29	0xbc9964db	-0.01872485
30	0x3cc90389	0.024537819
31	0x3a4afb3c	0.00077431253
32	0x3b52066f	0.0032047292
33	0x3c4a4368	0.012345172
34	0x3c9c6f0b	0.019095918
35	0x3a43809a	0.0007457823
36	0xbc3f37a2	-0.011670979
37	0xbc31d7ba	-0.010854656
38	0xbc642a72	-0.013926135
39	0x3cc033b6	0.023462158
40	0x3c97c626	0.018527102
41	0x3d1cf047	0.038315084
42	0xbca65cb7	-0.020307882
43	0xbc3089bb	-0.010775025
44	0xbc0995bb	-0.008397515
45	0x3c09de7f	0.008414864
46	0x3c64f71a	0.013974929
47	0x3bafb1cf	0.0053617726
48	0x3c9f0118	0.019409701
49	0xbb05f867	-0.0020442249
50	0x3c914a39	0.017735587
51	0x3c325e4d	0.010886741
52	0x3c17b21a	0.009258771
53	0x3af2a4d8	0.0018512262
54	0x3d177e2a	0.036985554
55	0xbba5d9e8	-0.005061377
56	0xbc479cbb	-0.012183364
57	0x3ae2a5ae	0.0017291808
58	0x39ee4995	0.0004544972
59	0x3b9adf88	0.004726354
60	0x3b1fd265	0.002438688
61	0xbc65d6a5	-0.014028226
62	0xbc9f9389	-0.01947953
63	0xbca66808	-0.020313278
64	0xba223e03	-0.000618905
65	0x3c382aac	0.0112406425
66	0x3c09f831	0.00842099
67	0xbb30609b	-0.002691305
68	0x3c06419d	0.008194354
69	0x3cd9900c	0.026557945
70	0x3d0c0cbc	0.034191832
71	0xbc310247	-0.010803766
72	0x3cbc9fcf	0.023025421
73	0xbb776ad4	-0.0037752884
74	0x3aa246a2	0.0012380669
75	0x3ca16433	0.019701099
76	0xbb302afc	-0.002688109
77	0x3b62659a	0.0034545423
78	0x3c8b0ed5	0.016974846
79	0xbc9d2aa3	-0.01918537
80	0xbcbc97f2	-0.023021672
81	0xbca8d49c	-0.020609193
82	0x3d04e702	0.03244687
83	0xbb55bacf	-0.0032612567
84	0xbc9a7917	-0.018856568
85	0x3b9e49ac	0.0048305597
86	0x3d0d4e4f	0.03449851
87	0xbc863fd5	-0.01638786
88	0x3c3f9b0e	0.011694683
89	0x3c800eed	0.015632117
90	0x3c0e8d5b	0.008700694
91	0x3cff0d34	0.031134225
92	0x3b922c53	0.0044608503
93	0x3ccfbcae	0.025358524
94	0x3c33a04b	0.01096351
95	0x3b8902e2	0.004181252
96	0xbc1c5cdd	-0.009543625
97	0xbb7c61af	-0.0038510372
98	0x3aa76dd5	0.0012773821
99	0xbcdf6838	-0.027271375
100	0x3d30ddbd	0.043180216
101	0x3c7413ea	0.014897326
102	0xbc227e45	-0.0099178
103	0xbbd0d634	-0.0063731913
104	0x3c8b9eaf	0.01704344
105	0xbb9a91bd	-0.0047170804
106	0x3ba76eff	0.0051096673
107	0x3cf8ef68	0.030387595
108	0x3c24a981	0.0100501785
109	0xbcc79264	-0.024361797
110	0xbcdb2b0a	-0.026753921
111	0xbcb3a35d	-0.021928484
112	0xbc137848	-0.009000845
113	0x3d3a0fb9	0.04542515
114	0xbc21bb43	-0.009871307
115	0xbc61e5b6	-0.0137876775
116	0xbcfff7ff	-0.031246183
117	0x3c79c5e8	0.015244938
118	0x3c85a449	0.016313689
119	0x3b87813c	0.004135279
120	0xbc687630	-0.014188334
121	0xbcb867f0	-0.022510499
122	0x3c641dc1	0.0139231095
123	0xbcd7b773	-0.026332593
124	0x3ae75128	0.0017648088
125	0xbd08201b	-0.033233743
126	0x3bc4e0f8	0.0060082637
127	0x3b8f64b5	0.004376019
128	0xbbfa718f	-0.007642932
129	0x3d091d99	0.033475492
130	0xbd0c3cd4	-0.034237698
131	0x3b15f163	0.0022879473
132	0xbc460cf3	-0.012088048
133	0x3ca1fda6	0.01977427
134	0xbd279b64	-0.040919676
135	0x3d2adeef	0.041716512
136	0x3babef21	0.0052470122
137	0x3ccdcc1b	0.02512174
138	0xbc4fc076	-0.012680164
139	0x3b85ac46	0.0040793745
140	0xbce55a36	-0.027997117
141	0x3c2d92c2	0.010594072
142	0xbc8f1daf	-0.017470209
143	0x3bbc636d	0.005749157
144	0xbcfc368e	-0.030787732
145	0xbc19ab73	-0.009379256
146	0xbca51beb	-0.020154914
147	0x3b3fbb41	0.00292559
148	0x3c9ddd57	0.019270582
149	0xbc47dbd3	-0.012198406
150	0x3bcc8e8b	0.0062425784
151	0x3c7301be	0.014831958
152	0xbca7f941	-0.020504596
153	0x3cd60ae3	0.026128238
154	0x3cb0b3aa	0.021570046
155	0xbc816309	-0.015794294
156	0x3b96d4ac	0.004602989
157	0x3c9e826c	0.0193493
158	0x3cf6660c	0.030077957
159	0xbcca24bb	-0.024675718
160	0x3c40b192	0.011761086
161	0xbd068eeb	-0.03285114
162	0x3d045c39	0.032314513
163	0x3cc627c3	0.024188882
164	0x3c458575	0.012055744
165	0x3c893622	0.016749445
166	0xbcb82b78	-0.022481665
167	0x3d16d564	0.0368246
168	0x3c9087b0	0.017642826
169	0x3b9e1216	0.0048239334
170	0x3d097d32	0.03356666
171	0xbc99e69f	-0.018786727
172	0xbd2722cb	-0.040804666
173	0x3cf32792	0.029681955
174	0x3c95bd00	0.018278599
175	0xbc2fa66d	-0.010720831
176	0x3bf09155	0.0073415437
177	0x3c294f95	0.010333915
178	0x3ccc61f2	0.024949048
179	0x3c5ca9e0	0.013468236
180	0xbc591a3d	-0.013250885
181	0xbd309f2b	-0.043120544
182	0xbc0b50e5	-0.0085031735
183	0x3d1c9d22	0.03823579
184	0x3bf332e2	0.007421837
185	0x3bdb39a5	0.0066902214
186	0x3c3a73c7	0.0113801425
187	0x3bc2ad6c	0.0059410837
188	0xbc93834a	-0.01800694
189	0xbc923c9e	-0.01785117
190	0x3cf60160	0.030029953
191	0x3ce0ef12	0.027457748
192	0xbc30f92f	-0.0108015975
193	0xbbb4918f	-0.005510516
194	0x3c1eb402	0.009686472
195	0x3a2e5b72	0.00066511997
196	0x3d10c09d	0.03533994
197	0xbc808b89	-0.015691536
198	0xbad2674d	-0.0016052515
199	0x3c19eeab	0.009395282
200	0x3c224c7d	0.009905932
201	0x3d067c33	0.03283329
202	0xbc7cbc6a	-0.015425781
203	0x3cba27d5	0.022724072
204	0x3c143658	0.00904616
205	0x3bed6ce7	0.007245648
206	0xbcc743c8	-0.024324313
207	0xbd2d51a5	-0.04231419
208	0xbc1d2ada	-0.009592736
209	0x3cab8482	0.020937208
210	0x3cf43058	0.029808208
211	0xbca822eb	-0.020524463
212	0x3cc202d8	0.023682997
213	0xbb85ad51	-0.004079499
214	0xbb9a7d42	-0.004714639
215	0x3af958a8	0.0019023614
216	0xbc9e8b0f	-0.019353418
217	0xbcee10a0	-0.029060662
218	0x3b6a826b	0.0035783302
219	0x3cbb733e	0.0228821
220	0xbbfd2330	-0.007725142
221	0xbc77f597	-0.015134237
222	0xbc07b715	-0.008283396
223	0xbb26232c	-0.0025350554
224	0x3b8ecc6f	0.0043578665
225	0xbb9fda33	-0.0048783063
226	0xbb05655c	-0.0020354604
227	0xbab06d14	-0.0013460242
228	0x3ca8f79c	0.020625882
229	0xbc3780e6	-0.011200165
230	0x3cf5af44	0.0299908
231	0x3c81fc76	0.015867453
232	0x3cce140a	0.02515604
233	0xbc6ecd00	-0.014575243
234	0xbc0d6584	-0.00863016
235	0xbcbf8dcd	-0.023383046
236	0x3c133af7	0.008986226
237	0xbbfc7313	-0.0077041476
238	0x3bc0ab5c	0.0058798026
239	0xbd597945	-0.053094167
240	0x3be0d098	0.006860804
241	0x3cddd273	0.02707789
242	0x3bb2dbd1	0.005458333
243	0xbcc0a819	-0.023517655
244	0x3cb7d662	0.022441093
245	0x3c1e4c96	0.009661814
246	0xbc747f20	-0.014922887
247	0x3d095dae	0.033536606
248	0x3c62a64b	0.013833593
249	0x3becd4c5	0.0072275125
250	0x3c9c1267	0.019051744
251	0x3bd27d76	0.0064236475
252	0x3c527956	0.012846312
253	0x39082deb	0.00012987076
254	0xbb1237e9	-0.0022311157
255	0x3c188a9a	0.009310389
