checkpoints/lightgcn.pt (torch, 130093 bytes, 2 tensors)

user_emb.weight f4 [200, 64]
-0.009997985 -0.009530374 -0.009846779 0.008354294 0.0048291325 0.026682962 0.004521883 -0.004874556
0.0022047057 -0.0075738616 -0.00036368647 -0.009730799 -0.0017428419 -0.013161801 0.008904377 -0.0070020542
0.0017485826 -0.002721788 0.0069352505 0.005220557 -0.013543582 0.0035169579 -0.010340977 -0.023044381
0.018430592 0.0030146497 0.0028217407 -0.0045420453 0.017400462 0.010079365 0.030199872 0.00013067047
0.02271678 0.006813895 0.0073495065 0.00013702098 0.023264484 0.0030020345 -0.013850846 0.016354715
0.00845335 -0.0080267135 -0.0022003015 -0.006107405 0.00067427283 -0.005011377 0.021664288 0.006310164
0.004321403 -0.0012815478 -0.004159394 0.010760092 -0.0045375144 -0.011440036 0.011075134 0.0046636034
0.01648429 -0.003939323 0.005295196 -0.007261648 0.011181258 0.004413721 -0.016591508 0.0016899134
0.021026598 0.006618917 -0.0060787583 0.0023845534 -0.01098711 0.007319428 -0.0007317304 -0.011883413
-0.0010128855 -0.011762386 0.010335559 0.0029777463 -0.005807698 0.0053328127 -0.0056272577 0.0064351954
-0.0009956204 -0.014045999 0.00482257 -0.0038895858 0.019673329 0.0053821104 -0.0018643644 0.013095707
0.0017104659 -0.008856697 -0.007368995 0.0014851909 -0.017000943 -0.010035366 -0.0023102388 -0.008762933
-0.023771612 -0.0074381293 0.011418688 0.0032205074 -0.008809595 -0.00041212427 -0.0053135534 -0.0056405645
0.0061909244 0.0053401976 -0.0063169873 0.00070806063 -0.027922368 0.00023919845 0.0013549794 -0.009145787
-0.016130358 0.015172822 -0.00326417 0.002392713 0.0075145694 0.009928842 -0.0015198351 0.014436066
-0.0040362272 0.0022839324 0.007551309 -0.0128173595 0.009202142 0.028379476 0.014197452 -0.009256507
-0.0038325838 -0.0060971784 0.0038527935 -0.02583888 -0.0041619684 -0.009548968 0.004014366 -0.010890921
-0.00461128 0.01089533 0.010180929 0.009971347 -0.0029408117 -0.004521639 0.013588266 0.011693588
0.0070566 -0.0035049333 0.013334068 0.0036275908 -0.0020077147 -0.00884082 -0.013535738 -0.026329441
-0.005697914 0.012818363 -0.0146490885 0.013802795 0.018887646 -0.0127707925 -0.005106226 -0.0032166322
0.008034622 -0.006156321 -0.010789391 -0.005026825 0.004643024 0.0080892965 0.0019108148 -0.0008504912
-0.022467306 -0.014416006 -0.00074365723 0.00080050237 -0.016152224 -0.009450695 -0.010517531 -0.012858982
-0.011590763 -0.00591355 -0.0057602264 -0.002389153 0.0066690985 0.003597313 -0.006323339 -0.007842107
0.0049987035 -0.010675555 -0.01609054 0.010494933 0.0047236406 -0.016227735 -0.009755697 0.014622287
0.019757004 0.016039148 0.0068408996 0.0028754384 -0.0028042544 0.0067949053 0.011729451 -0.008641968
0.00037333003 0.012886625 0.01158853 0.0036530113 0.0009910744 -0.0061219255 -0.0056132996 0.00080641755
0.0059108213 -0.00025893823 -0.0055966387 0.007508939 0.0003340358 -0.00031947347 0.0129552595 -0.03238946
0.02026403 0.021583626 0.028711876 -0.0074118925 0.02569661 -0.008832573 -0.014182124 0.013727222
-0.008972959 0.035256896 0.0011425442 0.008399411 0.0020167176 -0.013198442 0.002252703 0.009742613
-0.023069007 -0.0037228777 0.0024379822 -0.009238336 0.0049289195 0.014789028 0.002962573 -0.0144480355
-0.0049712197 0.0061710738 -0.021216713 -0.016493801 -0.023174537 -0.009186806 0.014203354 0.00096813054
-0.004175283 -0.00037937728 -0.009499169 -0.0025588784 0.027729271 0.0021065352 0.0014678044 0.02410995
00000000: 97ce 23bc 4925 1cbc 6254 21bc 73e0 083c
00000010: b33d 9e3b 3a96 da3c 4e2c 943b bdba 9fbb
00000020: d37c 103b 282e f8bb 2cad beb9 ee6d 1fbc
00000030: 1270 e4ba 98a4 57bc aae3 113c 7d71 e5bb
00000040: b230 e53a 0660 32bb 1941 e33b 3511 ab3b
00000050: e6e5 5dbc c37c 663b 346d 29bc 92c7 bcbc
00000060: c1fb 963c 6e91 453b f4ec 383b 70d5 94bb
00000070: 6a8b 8e3c ec23 253c b965 f73c 9604 0939
00000080: 8a18 ba3c 1847 df3b 21d4 f03b 4aad 0f39
00000090: 2995 be3c c8bd 443b a9ee 62bc 53fa 853c
000000a0: eb7f 0a3c 7a82 03bc ef32 10bb a020 c8bb
000000b0: afc1 303a 7a36 a4bb 4e79 b13c 7ec5 ce3b
000000c0: 8e9a 8d3b 9cf9 a7ba 874b 88bb 194b 303c
000000d0: 6eaf 94bb fd6e 3bbc 7b74 353c 24d1 983b
000000e0: 100a 873c 7015 81bb 5383 ad3b 1ef3 edbb
000000f0: 9831 373c faa0 903b eaea 87bc 1680 dd3a
00000100: f93f ac3c 80e3 d83b 5230 c7bb 2b46 1c3b
00000110: 4803 34bc d0d7 ef3b 99d1 3fba a6b2 42bc
00000120: ccc2 84ba 06b7 40bc 7a56 293c 4b26 433b
00000130: 804e bebb e0be ae3b dc64 b8bb 55de d23b
00000140: 7a7f 82ba 3121 66bc a606 9e3b 6ce8 7ebb
00000150: f629 a13c 6a5c b03b b05d f4ba 608f 563c
00000160: b631 e03a ae1b 11bc 9c77 f1bb bdaa c23a
00000170: 9045 8bbc 606b 24bc 6067 17bb 6892 0fbc
00000180: afbc c2bc 8dbb f3bb 7315 3b3c 260f 533b
00000190: 1f56 10bc 6212 d8b9 511d aebb 7cd4 b8bb
000001a0: 3ddd ca3b d3fc ae3b bbfe cebb 259d 393a
000001b0: 73bd e4bc 58d1 7a39 9099 b13a 36d8 15bc
000001c0: d023 84bc 6e97 783c afeb 55bb 10cf 1c3b
000001d0: c73c f63b 95ac 223c 3435 c7ba 4085 6c3c
000001e0: 5442 84bb 07ae 153b f970 f73b e7ff 51bc
000001f0: 95c4 163c 137c e83c 6e9c 683c 9ba8 17bc
00000200: 162c 7bbb d7ca c7bb 267f 7c3b 0fac d3bc
00000210: 1f61 88bb 4673 1cbc f18a 833b d56f 32bc
00000220: 381a 97bb 5482 323c e9cd 263c dc5e 233c
00000230: a2ba 40bb 422a 94bb 52a1 5e3c 7796 3f3c
00000240: 0d3b e73b 06b3 65bb 2277 5a3c e0bc 6d3b
00000250: dd93 03bb 16d9 10bc 00c5 5dbc d7b0 d7bc
00000260: 91b5 babb 1c04 523c bb02 70bc 1e25 623c
00000270: 44ba 9a3c 963c 51bc 2152 a7bb 22ce 52bb
00000280: a6a3 033c f7ba c9bb fcc5 30bc 10b8 a4bb
00000290: 8224 983b f888 043c 4e74 fa3a 80f3 5eba
000002a0: 5b0d b8bc 1d31 6cbc fef1 42ba ced8 513a
000002b0: ab51 84bc 16d7 1abc b951 2cbc 7bae 52bc
000002c0: 2fe7 3dbc 74c6 c1bb 48c0 bcbb 5693 1cbb
000002d0: 7488 da3b e6c0 6b3b 0334 cfbb 2e7c 00bc
000002e0: 2acc a33b 86e8 2ebc 4fd0 83bc f1f2 2b3c
000002f0: c5c8 9a3b 07f0 84bc 5cd6 1fbc 5192 6f3c
00000300: 71d9 a13c 8864 833c a029 e03b da71 3c3b
00000310: 95c7 37bb cca7 de3b e22c 403c 0a97 0dbc
00000320: 82bb c339 6c22 533c d1dd 3d3c 5c67 6f3b
00000330: f0e6 813a 6f9a c8bb c5ef b7bb c465 533a
00000340: 90af c13b 1ac2 87b9 0264 b7bb 8c0d f63b
00000350: 8721 af39 017f a7b9 4c42 543c cfaa 04bd
00000360: c000 a63c 25d0 b03c 2b35 eb3c 76df f2bb
00000370: b281 d23c 7fb6 10bc 245c 68bc 24e8 603c
00000380: 5103 13bc 8969 103d 6cc1 953a af9d 093c
00000390: e82a 043b 473e 58bc 16a2 133b 7b9f 1f3c
000003a0: 37fb bcbc 86fb 73bb 8ec6 1f3b 645c 17bc
000003b0: c682 a13b ae4d 723c ba27 423b 74b7 6cbc
000003c0: 9de5 a2bb b836 ca3b acce adbc 021e 87bc
000003d0: 87d8 bdbc 4284 16bc 2fb5 683c 24ca 7d3a
000003e0: d0d0 88bb 28e7 c6b9 67a2 1bbc dbb2 27bb
000003f0: 7f28 e33c cc0d 0a3b 5863 c03a 3b82 c53c

item_emb.weight f4 [300, 64]
0.0030008836 -0.0038244142 0.003112468 0.01229972 0.0010168906 -0.0072554806 0.0058241435 0.007981356
-0.001052549 0.014372939 0.010230941 -0.0059496 0.0098486515 -0.012255462 0.01767992 0.0018575712
-0.0037528628 0.017055433 -0.014701147 0.0005364134 -0.011481179 -0.0060792 -0.0051111653 -0.007959267
-0.006307032 0.011252342 -0.020040544 0.008616601 0.0034422213 -0.009306157 0.004182983 0.0030465974
0.014758808 0.0005508738 0.017884402 -0.0009250649 -0.007299032 -0.020416096 -0.009688655 0.0038021354
0.008062614 -0.010217752 0.0094163865 0.00014814582 0.0060868794 0.0007242334 -0.00567826 0.009062352
-0.0050438326 0.0024602565 0.012680089 0.008289232 -0.005012161 -0.00055663293 -0.023744475 -0.009457208
0.0030664015 -0.0035088523 -0.00749908 -0.007917661 0.008649263 -0.0019415952 -0.008150919 0.0015506529
0.0042328555 0.0073032645 -0.0013659674 -0.011717943 -0.0009711844 0.005527492 0.0038927621 0.0080849985
0.021444103 -0.00843455 -0.0143549265 -0.004727074 -0.00337223 0.0025075148 0.010380562 0.0010365936
-0.00016080361 0.0028415993 0.020551424 -0.008488915 -0.01548247 -0.0043384917 -0.013455092 -0.0023237825
0.0031067804 -0.012646854 -0.004654805 -0.0040014936 0.0051898286 0.009005282 -0.016436141 0.0017969733
0.0025982247 0.011031368 -0.005722849 0.0018520228 0.011902693 -0.0113485465 0.001888072 0.0053062784
0.0089958245 0.030219112 0.016364595 -0.011295471 0.021009337 -0.013077216 -0.0136666205 0.013852742
0.009182523 0.0026946191 -0.0053711124 0.007367747 0.0011143112 -0.008163413 0.014190211 -0.0010145664
-0.012763796 -0.013909129 0.0010203738 -8.494704e-05 0.0066244286 -0.00486784 -0.0038958928 -0.014439965
-0.0018739715 0.003969756 -0.0034643945 0.012877697 0.006976561 -0.024041772 -0.006854187 -0.0071884952
0.0049685277 0.0017107211 0.009947128 0.007479876 -0.00742901 0.03116097 0.0015301034 0.018492123
0.014440537 -0.0070823454 -0.0005518655 -0.0063070483 0.0002831407 0.004639835 0.015524305 -0.006707216
0.00046632427 0.007618414 0.01734018 -0.011452724 -0.0007403161 -0.0054515996 0.00783602 -0.006355366
-0.0011725872 0.0075976704 0.012046087 0.011441609 0.021638826 0.018934436 -0.015252288 0.017486144
-0.0061560385 -0.0129826125 0.0014542227 -0.0027922788 -0.012873359 -0.0042403685 0.0022243562 -0.0028014365
-0.006311784 -0.01699084 -0.017065898 -0.006611773 -0.002321669 -0.017196767 0.0012132131 0.009821713
0.0034866242 0.00828495 -0.010468771 -0.009209426 -0.0048024175 0.0017103913 0.010882028 0.020042948
-0.004679333 -0.008995634 -0.014827255 0.007891429 -0.00857876 0.0054597063 -0.0039351475 -0.0002582951
-0.0035985939 0.017402658 -0.0014500999 -0.018944142 0.0031621316 -0.00963751 -0.0026051113 -0.0006690667
0.009759549 -0.0067195143 -0.008610835 -0.016832309 0.004605856 -0.014879478 0.009899385 0.023190174
0.0078909695 -0.002937772 0.018810019 0.017254287 0.020569025 -0.013357162 -0.008606232 0.0012864259
-0.008912342 -0.0054180874 -0.009202922 0.01894526 0.014238572 -0.004050726 0.0007769351 -0.008756891
-0.0015134457 -0.014396095 0.0027546443 0.010561312 0.014246651 0.0020012066 0.015507426 0.010399032
-0.0023384884 -0.0077100545 -0.0065297927 -0.008548727 -0.0019349828 8.772983e-05 -0.0039008288 0.003253052
0.0061955913 0.01592688 0.010071325 0.0010059855 0.0068618883 0.005584216 -0.013467197 -0.010939694
00000000: 79aa 443b 06a3 7abb 8cfa 4b3b c484 493c
00000010: 3049 853a 62bf edbb 75d8 be3b 3cc4 023c
00000020: aff5 89ba 7a7c 6b3c ad9f 273c ddf4 c2bb
00000030: 3d5c 213c 22cb 48bc 7bd5 903c bf79 f33a
00000040: 97f2 75bb d6b7 8b3c 14dd 70bc 189e 0c3a
00000050: 8e1b 3cbc 0734 c7bb 907b a7bb 9667 02bc
00000060: 38ab cebb be5b 383c 112c a4bc a52c 0d3c
00000070: e496 613b da78 18bc 6811 893b 6ca9 473b
00000080: edce 713c 8468 103a 4f82 923c 0e80 72ba
00000090: b82c efbb a83f a7bc 2abd 1ebc 3f2d 793b
000000a0: 0e19 043c 5c68 27bc 3047 1a3c 9757 1b39
000000b0: 7274 c73b 7bda 3d3a b210 babb 427a 143c
000000c0: bc46 a5bb 413c 213b 26c0 4f3c 8fcf 073c
000000d0: 0e3d a4bb 01eb 11ba c683 c2bc 68f2 1abc
000000e0: aef5 483b c6f4 65bb d8ba f5bb 14b9 01bc
000000f0: a3b5 0d3c 207d feba 6f8b 05bc 473f cb3a
00000100: c4b3 8a3b 3950 ef3b 430a b3ba 9dfc 3fbc
00000110: 1597 7eba f71f b53b b61d 7f3b f176 043c
00000120: 8bab af3c 1131 0abc ed30 6bbc 92e5 9abb
00000130: a200 5dbb 1e55 243b 3c13 2a3c 4fde 873a
00000140: 649d 28b9 203a 3a3b 765b a83c 1715 0bbc
00000150: 30aa 7dbc e829 8ebb bf72 5cbc 9a4a 18bb
00000160: 209b 4b3b c034 4fbc 5687 98bb f61e 83bb
00000170: 700f aa3b e48a 133c 16a5 86bc 6b88 eb3a
00000180: fa46 2a3b e9bc 343c bd86 bbbb 93bf f23a
00000190: 8303 433c 41ef 39bc 2f79 f73a 4ae0 ad3b
000001a0: 3963 133c 128e f73c 0b0f 863c a410 39bc
000001b0: c61b ac3c d241 56bc f6e9 5fbc 9cf6 623c
000001c0: 4b72 163c 3598 303b 2800 b0bb 246d f13b
000001d0: 140e 923a d6bf 05bc 0f7e 683c 33fb 84ba
000001e0: 3e1f 51bc 1ee3 63bc 10be 853a 9825 b2b8
000001f0: bc11 d93b 6782 9fbb 3c52 7fbb 9a95 6cbc
00000200: 0da0 f5ba ba14 823b e50a 63bb fafc 523c
00000210: a39b e43b 40f3 c4bc 1799 e0bb 788d ebbb
00000220: 08cf a23b 463a e03a 47f9 223c bf19 f53b
00000230: 0d6f f3bb 4a45 ff3c c08d c83a cb7c 973c
00000240: 0198 6c3c 0513 e8bb 11ab 10ba 5bab cebb
00000250: 8072 9439 c209 983b a859 7e3c 35c8 dbbb
00000260: fc7c f439 e3a3 f93b fe0c 8e3c 35a4 3bbc
00000270: c611 42ba 55a3 b2bb a662 003c ad40 d0bb
00000280: 7fb1 99ba e1f5 f83b f35c 453c 9675 3b3c
00000290: e843 b13c 641c 9b3c bce4 79bc 1a3f 8f3c
000002a0: 98b8 c9bb 06b5 54bc 9e9b be3a aafe 36bb
000002b0: c8ea 52bc caf2 8abb 81c6 113b 4e98 37bb
000002c0: 15d3 cebb 6030 8bbc c8cd 8bbc 92a7 d8bb
000002d0: 2427 18bb 3ce0 8cbc ad04 9f3a 40eb 203c
000002e0: d97f 643b 99bd 073c 3585 2bbc 22e3 16bc
000002f0: 995d 9dbb 352f e03a 894a 323c 1c31 a43c
00000300: 1755 99bb 6c62 13bc 04ee 72bc 0d4b 013c
00000310: ed8d 0cbc 56e7 b23b 69f2 80bb c86b 87b9
00000320: 63d6 6bbb 0590 8e3c 4711 beba bf30 9bbc
00000330: c43b 4f3b a6e6 1dbc 84ba 2abb 4e64 2fba
00000340: 84e6 1f3c 5f2f dcbb 7614 0dbc e9e3 89bc
00000350: b8ec 963b 0ec9 73bc 0831 223c 52f9 bd3c
00000360: 2049 013c a387 40bb 7817 9a3c dd58 8d3c
00000370: 5f80 a83c ffd7 5abc 2701 0dbc 4a9d a83a
00000380: 1205 12bc 368a b1bb dac7 16bc 1733 9b3c
00000390: e648 693c f4bb 84bb 3bab 4b3a 1079 0fbc
000003a0: d05e c6ba 99dd 6bbc 4387 343b 5a09 2d3c
000003b0: c96a 693c ad26 033b dc12 7e3c b460 2a3c
000003c0: 5341 19bb a0a4 fcbb dff7 d5bb f60f 0cbc
000003d0: 409f fdba 98fb b738 0ca5 7fbb 2831 553b
000003e0: 6304 cb3b 1779 823c 3302 253c 46db 833a
000003f0: b1d9 e03b cdfb b63b 85a5 5cbc 673c 33bc
