checkpoints/lightgcn_sgl_n4_d128.pt (torch, 258189 bytes, 2 tensors)

user_emb.weight f4 [200, 128]
00000000: 99e1 de3c b808 ec3b df1c 9fbc bb7e d7bc
00000010: 4409 e93a 972e 88bc 85fe 00bd d841 50bc
00000020: 9c11 9fbc 76f3 a63c a683 bbbc f23c 84bc
00000030: 6386 3e3c 1334 a4bc 259c 03bd e8d9 d23c
00000040: 22c2 363a 0b99 07bc 2d03 c0bc c403 bebb
00000050: 0e4d df3c b630 01bc f1e0 83bc a901 a1bc
00000060: 806c 663c cee6 4abb 9b9d ea3b 08d1 d73a
00000070: 0463 1a3c b0e6 13bd 180b 36bc 513d c23c
00000080: f283 b03c 7988 00bb 994e 87bc caf5 4b3c
00000090: 2d70 51bc 02e4 d1bc 2e4a bebb be3d 2b3c
000000a0: 0d19 8b3c a952 3ebc 94cb 973c 10bc 8c3a
000000b0: 036c 6ebc 17cd 69bc 555f a83c 1fd6 b83c
000000c0: 63f0 dabc da49 6abc d52f 5bbc f49f 4cbc
000000d0: bafa f4bb bae4 c2bc f8c8 4bbb 0774 6fbc
000000e0: edc0 f0b9 b72b acbc 7f9c dcbc 2e2f a83a
000000f0: 6d1d 1f3c d51d b2bc 6c60 0bbc 0e1a c93c
00000100: 64a6 f6bb 8ae3 09bd 5fba 9abb 2729 8d3c
00000110: 3a90 94bc 3c2e e03b 5dbd 7e3c c91c 15bc
00000120: 1fc3 eb3c 6a42 c53b 0740 443a 0591 423c
00000130: fda2 a63b 3ccb 5cbc a0ed 8c3a 77fc bcbc
00000140: 642d 29bc b562 04bd a3b0 cb3c 247c d63c
00000150: df25 51bc 488c a43c e6b4 9bbc 4752 c9bc
00000160: ec42 ed3c 97de 773c 48c0 5abc 05c9 043c
00000170: bccd 95bc 7a4f c83c a896 c2bb f974 9c3c
00000180: e788 e3bb be33 a9bc 5ead d2bc fddd f13b
00000190: 6994 6d3c 8a28 d5bc 5a30 b63c a526 fabc
000001a0: 9ba8 c1bb 4301 95bc 5c3f 393d 0e66 433d
000001b0: 23ce bcbc 5880 5f3c e8d9 92bc 41d8 463c
000001c0: 924d 033d 8521 44bc f6fd 063c f0e7 983c
000001d0: 2daa e6bc beb3 fc3c 4b1e 02bd 6a8c a63c
000001e0: 800e ec3b c8d7 af3c bd60 cabc b7fa ae3c
000001f0: 056f 9dba 75de 7c3c e7ee 133c aaa4 8b3c
00000200: a5e1 723b 9beb 023d a878 033b 5b9b c03c
00000210: 027b 8e3c 1b74 be3c 4fb9 0cbb 6576 c83c
00000220: bfb5 023c 5ad9 39bd 1287 e2bb d88f 8f3b
00000230: 778b dcbc 1caa 83ba 2ff8 0b3d 2159 923c
00000240: d7e7 e1bb ceb9 ae3c 904f 243a 7e7c 7bbc
00000250: bc06 ea3a 94cf 69bc 5cc8 f73c 354b 60bc
00000260: fee6 5c3c 21cb b43c 70f7 edbb 9a60 b7bb
00000270: cc80 a43c 8999 a93c 7865 48bc 11e8 abbc
00000280: 6206 7dbc 2ac1 8a38 738a 7bbc e955 de3b
00000290: 8db6 6a3c be83 60bc 0603 3e3c 8e73 8d3c
000002a0: 65b1 143d 4b10 24bd 9770 6cbb 7362 ecbc
000002b0: 7492 913b c68c 323c 8817 8cbc 3552 783c
000002c0: 2583 03bc 267b 0b3b 2ec0 21bc 9e49 ea3c
000002d0: f2da 08bc db6e 19bc 0e18 8a3c 3665 86bb
000002e0: b2df ac3a 7393 19bd 8ac8 e93c d9c2 be3a
000002f0: 1216 a2bc ed95 f2b9 649d d63c df38 8ebc
00000300: 3c45 bf3c 4f0f d63c e7ae 4cbc 0d03 99bc
00000310: 3d9d 243c 917c c33b 65e5 9b3c 3858 7bbc
00000320: 87c6 053c 6a75 0fbd 5e0c 96bc efe4 14bd
00000330: e983 2c3d 112b 903c b94c ed3c 6ae5 b9bc
00000340: 060c 7dbc b254 9a3c e621 16bd 71e3 283d
00000350: 3e77 0cbc fd81 36bb 292a cabb 5b9a 273c
00000360: 2194 2dbd bb50 a43c ff95 d4bc ac82 4fbc
00000370: 28a8 dc3b b926 6dbc a0e3 e4ba 70ee 3bbb
00000380: feb0 12bc 5533 04bc 4891 a73b d5e9 5ebc
00000390: 7f71 023d 00cd 86bc 7dd1 b03b 36fe 423d
000003a0: 76d3 11bc 20e2 1d3a 67c3 d43b 7b81 7fbc
000003b0: 245e debb 323f 843c c58d a0bc b261 f33a
000003c0: 6807 0fb9 fcc6 1a3c 4b39 07bd 77e3 7abc
000003d0: cc6a a83c ad4c 60bc 43b7 fb3c 6f89 c43b
000003e0: b8e0 703c 7397 33bd 500a 51bd cd12 f0bc
000003f0: 06f6 cc3c 05e4 17bd 8f85 0abd b317 533c
0.027207183 0.007203188 -0.019422946 -0.026305547 0.0017779251 -0.016623778 -0.03149273 -0.012711011
-0.019417576 0.020379763 -0.022889923 -0.016142342 0.01162872 -0.020044362 -0.032131333 0.025738671
0.0006971677 -0.008276234 -0.023439014 -0.0057987887 0.027258422 -0.007885149 -0.016098471 -0.019654112
0.014063954 -0.0030960324 0.0071599013 0.0016465494 0.009423021 -0.036108673 -0.011111043 0.023710879
0.021547291 -0.0019612594 -0.01651697 0.012448737 -0.012783092 -0.025621418 -0.0058071828 0.010451732
0.016979719 -0.011616387 0.01852969 0.0010737199 -0.014552119 -0.014270089 0.02055327 0.022563038
-0.026725953 -0.014299834 -0.013378103 -0.012489308 -0.007476178 -0.023790706 -0.0031095129 -0.014615065
-0.00045920108 -0.021016939 -0.026930092 0.0012831443 0.0097116055 -0.02174274 -0.0085068755 0.024548557
-0.0075271595 -0.033664264 -0.004721924 0.017231537 -0.018135179 0.006841449 0.015548077 -0.009101101
0.028779564 0.00601988 0.00074863475 0.011875396 0.0050853477 -0.013476189 0.001075197 -0.023069603
-0.010325763 -0.032320697 0.0248645 0.026182242 -0.012765377 0.020086423 -0.019007158 -0.024575366
0.028962575 0.015128753 -0.0133515075 0.008104567 -0.018286578 0.02445196 -0.00593837 0.019098746
-0.0069438103 -0.020654555 -0.025717434 0.0073811994 0.014500716 -0.026020307 0.022239853 -0.030536005
-0.005909992 -0.018189078 0.04522644 0.04770475 -0.023047512 0.013641439 -0.017926171 0.01213652
0.0320564 -0.011970882 0.00823926 0.018665284 -0.028157318 0.030847427 -0.03176717 0.020330627
0.007203877 0.021465197 -0.024704332 0.021359785 -0.0012011236 0.015433897 0.009029127 0.017046291
0.0037060764 0.031962972 0.002006093 0.02351158 0.01739264 0.023248723 -0.0021472757 0.024470517
0.007977902 -0.0453733 -0.0069130743 0.004381161 -0.02692197 -0.0010045203 0.034172233 0.017864766
-0.0068940925 0.021328833 0.0006267959 -0.0153495055 0.001785479 -0.014270682 0.030246906 -0.013689806
0.013482807 0.022069516 -0.007262163 -0.0055962326 0.020080946 0.020703094 -0.012231223 -0.020984681
-0.015443416 6.6163324e-05 -0.015352833 0.0067851436 0.01432575 -0.013703285 0.0115974005 0.017267015
0.03630199 -0.0400546 -0.003607785 -0.028855538 0.0044425074 0.010897821 -0.017101064 0.015156318
-0.008026873 0.002128312 -0.009872479 0.028599557 -0.008352982 -0.009364809 0.016857173 -0.0041014208
0.0013189225 -0.037494134 0.028538007 0.0014553919 -0.019785915 -0.0004626954 0.026198097 -0.017361103
0.023348443 0.026130347 -0.012492872 -0.018678213 0.010047254 0.005965777 0.019030282 -0.015340857
0.008165008 -0.035024084 -0.018316444 -0.03635114 0.042117987 0.01759866 0.028967248 -0.022692401
-0.015444761 0.018839214 -0.03665342 0.04123253 -0.008573351 -0.0027848475 -0.0061695767 0.010229672
-0.042377595 0.020058027 -0.02595043 -0.012665432 0.006733913 -0.014474564 -0.0017462857 -0.0028676055
-0.008953331 -0.008068879 0.0051137544 -0.013605555 0.03184652 -0.016455173 0.0053960667 0.047605716
-0.008900514 0.000602277 0.0064930203 -0.015594835 -0.006786125 0.016143415 -0.019598851 0.0018568544
-0.00013640302 0.009446856 -0.033013623 -0.015313021 0.020558737 -0.013690156 0.030727034 0.0059978287
0.014702015 -0.043845605 -0.051035225 -0.02930584 0.025019657 -0.03708269 -0.033818778 0.012884068

item_emb.weight f4 [300, 128]
00000000: dfad 553c b4c7 5f3c 6917 0fbc 35a3 00bd
00000010: ac2d 4cbc 7182 86bb a267 1d3c 10e3 b2bc
00000020: 9052 5dbc 6710 933b 78a0 f13b 92be 51bc
00000030: 056c 063c dce1 a3bc 6d17 49bc dfe6 b03c
00000040: a228 8d3c a84a 4dbc e4e8 5cbb 82f3 0dbc
00000050: b53c c43c 0169 b1bc 2bba 3a3a 5a5c e83a
00000060: 785d 843c 0629 d4bc cfa6 2a3c bf76 1c3b
00000070: d797 153d 5f10 78bc 36c5 76ba c321 853c
00000080: 09f5 773c 5532 12bc 6684 ea3b 390e 813c
00000090: 4389 bd3b 45b7 1abd c689 1e3c a962 c2bc
000000a0: 678a 883b 07c3 983a e96b 893c fbeb efbc
000000b0: 9839 193c 3b0c 26bc 702d 813b 6d7e ea3b
000000c0: 6ac0 a1bc c480 703c 5c6e f6bb e0bd 773b
000000d0: 488b 9dbc f90c d1bb a5ca 29bc 4b70 b2bc
000000e0: 23b2 9dbc ce69 75bc 84b3 b0bc b766 cbbc
000000f0: 4ba9 a93c 7a41 fbbc dcfe fbbb fe36 d13c
00000100: 6092 29bc c438 52bc 3c9a f539 8abe 07bc
00000110: ebb0 91bb 53c9 403c 8217 98bb 8c4b bbba
00000120: 4345 d13b 1d38 293c b6fb 903c e0a8 10b9
00000130: bb2f 7a3b b4e9 23bc c299 94bc ec1e 0bbc
00000140: ad95 c23c 53b7 37bc 76c5 f73c 5efc 4e3b
00000150: d0c0 8bbb 2201 49bc 9bdc f039 b474 2bbc
00000160: 0a2d 923c 34e2 2d3b a85d a8bc 5e21 90bc
00000170: 1696 843c 86f0 bdbc 8689 12bc d200 333c
00000180: 3e4c 07bc 280c 6fbc 48e1 e43b e17d 143c
00000190: 4967 123d 6e58 32bc b782 2ebc d77e 12bc
000001a0: 3b27 c0bc b889 e1bc a290 28bb 9acc 3a3b
000001b0: 5404 54bc 8688 373c 2261 0f3c 3b99 c13c
000001c0: f4eb 8f3b e7b7 cfbc 50ed 20ba 5be1 c53c
000001d0: a2a4 91bc bcc7 e63a f55f a5bb 5c52 7fbc
000001e0: a67f 05bc 3c7f ee3c 1165 8cba f25b b63c
000001f0: 786e 733c f8aa b93b 3180 c93c 1eac 8dbc
00000200: fc06 7d3c e467 643c 0cb2 a9bc 1b66 8dbc
00000210: dc82 69bc 374c 40bb 1496 3ebc 1a38 033c
00000220: 4c46 bdbb 17ea 843b c9a9 a3bc 5271 093c
00000230: 8f11 a7bb fd85 363c 6755 afbc ea5b 6e3c
00000240: e32f e5bb c8a6 b0bc fe91 a3bc 8099 5ebc
00000250: 4263 903b 40d1 25bd a0e9 7ebc ba32 073d
00000260: de85 a6bc 6169 1abd 388e ad3c acb0 21bc
00000270: dc60 baba d3d7 91bc 286b 4bbd 46ac 1a3d
00000280: 629c 3e3c db11 b63c 078a 54bc b021 963b
00000290: c7da 03bd e443 e8b8 72e8 933b 7f97 263c
000002a0: e0ef b4bb 58b7 72bc abdd 9abc ba89 263b
000002b0: fe8c b93c c21e ffbc 5451 463b 8a15 e03a
000002c0: c013 a6bc 796a 9ebc d807 a1bc a6c0 0bbd
000002d0: f7c9 453c 04e7 c83b 407d c4bc f327 70bc
000002e0: 7f3c f2bb fd04 b43c 98e5 163c 709f 7a3c
000002f0: d4c9 0d3d da97 36bc 7440 f4bc 8463 d6bb
00000300: c047 b7bc 5699 7bbc 72ab 55bc 1338 003c
00000310: ab82 a3bc 1ca0 f5bc 8243 3ebc 772f ee3c
00000320: b26c c93c 3861 55bc f1bf 873a aa99 35bb
00000330: 920b 81bb ec49 4dba caa0 13bc c31d 133c
00000340: 6bc0 fc3b 75e2 60bc 56d5 e43c c443 253c
00000350: 3233 25bd 6506 2f3c 84cb 39bc 9bd5 a33c
00000360: 5c4d 0f3d 6013 46bc 28db b33b 80d9 cbbb
00000370: 1712 47bc 8f87 753b 482a 62bc bd01 2f3b
00000380: 6fd5 2fbc 42af e2bb 62e2 26bc 1ca6 ea38
00000390: 6f6e 05bb d183 383c eb0b 803c cdc2 32bd
000003a0: d8cb 8bbc f465 62bc 3400 5a3c 1710 7bbb
000003b0: 5844 503b 16e1 af3b 5c41 52bc 9cfd 253c
000003c0: 1832 9c39 fda6 bbba 1d7a 1a3c a86f 1f3a
000003d0: f8a1 2c3c d416 aebb f533 b6bc 7343 563c
000003e0: a76b 0ebb 5150 e33c a6dc 403b 6e9d c6bb
000003f0: df3b 6d3a 6ac2 0a3d 78fa 28bc 849b 453c
0.013041942 0.013658453 -0.008733609 -0.031405646 -0.012462061 -0.0041049053 0.0096072275 -0.021836787
-0.013508454 0.0044880393 0.0073738657 -0.012801783 0.008204465 -0.02000516 -0.012273652 0.021594463
0.01723129 -0.0125300065 -0.003370815 -0.008664014 0.023954729 -0.021656515 0.0007123078 0.0017727718
0.01615785 -0.025898468 0.010415747 0.002387449 0.03652176 -0.015140622 -0.0009413542 0.01625145
0.0151341045 -0.008923133 0.0071568964 0.015753852 0.005784185 -0.037772436 0.009676402 -0.023728685
0.0041668895 0.0011654802 0.016775088 -0.029287329 0.00935211 -0.010134752 0.003942184 0.0071561844
-0.01974507 0.014679138 -0.00752048 0.0037802383 -0.019231454 -0.0063797203 -0.010363256 -0.021782061
-0.019249981 -0.014978839 -0.021569975 -0.024829252 0.020710608 -0.03067087 -0.0076902937 0.025538918
-0.01034984 -0.012830917 0.00046844955 -0.008285174 -0.004446139 0.011766749 -0.004641474 -0.0014289482
0.0063864305 0.01032832 0.01769815 -0.00013795821 0.0038175422 -0.01000445 -0.018139724 -0.008491259
0.023753012 -0.0112131415 0.030245524 0.0031583528 -0.0042649284 -0.0122683365 0.0004594073 -0.010464836
0.017843742 0.0026532533 -0.020552471 -0.017594036 0.016184848 -0.02318598 -0.008943921 0.010925489
-0.008257924 -0.014590301 0.0069848634 0.009063215 0.03574303 -0.010885341 -0.010651282 -0.008941374
-0.023456207 -0.02753149 -0.0025720973 0.00285033 -0.012940485 0.011201983 0.008751186 0.023632636
0.0043921415 -0.025356246 -0.0006138878 0.02415531 -0.017778698 0.0017607133 -0.0050468394 -0.015583601
-0.00814811 0.029113404 -0.0010711272 0.02226064 0.014857881 0.005666133 0.02459726 -0.017293986
0.01544356 0.013940785 -0.020714782 -0.017260602 -0.014252391 -0.0029342303 -0.011632461 0.008008981
-0.0057762023 0.004056226 -0.01997842 0.008388834 -0.0050985287 0.011140344 -0.021403028 0.014548281
-0.006994234 -0.021563902 -0.019967075 -0.013586402 0.0044063637 -0.04048276 -0.01555863 0.03300736
-0.020327505 -0.037698153 0.02118598 -0.009868782 -0.001421954 -0.017803108 -0.04966274 0.03776195
0.011633964 0.022225311 -0.012972361 0.0045816526 -0.032191064 -0.00011075268 0.0045137936 0.010167955
-0.0055217594 -0.01481422 -0.018904528 0.0025411681 0.022650238 -0.031142596 0.0030260878 0.0017096263
-0.02027309 -0.01933788 -0.01965706 -0.03411927 0.012072078 0.006131055 -0.023985505 -0.014657962
-0.0073924656 0.021975035 0.009210013 0.015296802 0.034616306 -0.011144603 -0.02981589 -0.006542625
-0.02237308 -0.015356382 -0.013041364 0.007825869 -0.019959768 -0.029983573 -0.011612775 0.029075367
0.024587963 -0.013023667 0.0010356886 -0.002771 -0.003938147 -0.00078311446 -0.009010503 0.008979264
0.0077133677 -0.013725867 0.027933758 0.010086957 -0.040332027 0.010682677 -0.011340026 0.019999316
0.034985885 -0.01208958 0.005488772 -0.0062209964 -0.012150309 0.0037464832 -0.013804026 0.0026703917
-0.010732039 -0.006917865 -0.01018581 0.0001118893 -0.0020360013 0.011261896 0.015630683 -0.043642808
-0.017064974 -0.013818253 0.0133057125 -0.003830915 0.0031779017 0.0053674085 -0.012832966 0.010131266
0.0002979196 -0.0014316734 0.009428528 0.0006082007 0.010536663 -0.00531278 -0.022241572 0.013077605
-0.0021731646 0.027748259 0.0029428392 -0.0060612475 0.0009049754 0.033876814 -0.010313623 0.012061004
